car_classifier_net.pth (torch_old, 250684 bytes, 10 tensors)

conv1.weight f4 [6, 3, 5, 5]
0	0x3a5bfc1e	0.00083917554
1	0xbdc66a8c	-0.09688291
2	0x3d130326	0.035891674
3	0xbda32fb2	-0.079680815
4	0xbd23895e	-0.039925925
5	0xbc08156c	-0.008305889
6	0xbdf248ce	-0.11830293
7	0x3ddee6ea	0.10883887
8	0xbcfc4a72	-0.030797217
9	0x3d949264	0.07254484
10	0xbdb14058	-0.08654851
11	0x3dd6a212	0.10480131
12	0xbd57b7d0	-0.05266553
13	0xbdca4d4b	-0.09878024
14	0x3d8c2a35	0.06843988
15	0xbcb45227	-0.02201183
16	0xbdea630b	-0.11444672
17	0x3c8388aa	0.016056377
18	0x3cf0246a	0.029314239
19	0x3a8fd673	0.0010973945
20	0xbd878641	-0.06617404
21	0xbd773a30	-0.060358226
22	0x3c066d32	0.008204745
23	0x3d7a47bd	0.06110357
24	0xbd9dcdd2	-0.07705273
25	0xbddddf44	-0.108336
26	0x3da5df2f	0.080992095
27	0x3cfb9759	0.030711817
28	0xbd7fbff7	-0.06243893
29	0xbd8a3fe7	-0.0675047
30	0x3c1a63c9	0.009423205
31	0xbd808081	-0.0627451
32	0xbdd17bf0	-0.10228717
33	0x3d4688f6	0.04847046
34	0xbdc9b4ff	-0.098489754
35	0x3d0dcd95	0.034619886
36	0xbceaf645	-0.028681884
37	0xbd52bb5e	-0.05144822
38	0xbc1d2149	-0.009590455
39	0x3d6dfc55	0.05810197
40	0xbdc1d798	-0.09464949
41	0x3d6a5e49	0.057218824
42	0xbc353470	-0.011059865
43	0xbd02e4d1	-0.031956498
44	0xbc04fff4	-0.008117665
45	0x3da5db9d	0.080985285
46	0xbdf6919b	-0.12039491
47	0xbd96ab00	-0.073568344
48	0xbd5aa3fa	-0.053379036
49	0xbcaf0c04	-0.021368034
50	0xbcad0fe0	-0.021125734
51	0x3d7e881e	0.06214153
52	0xbdf1d253	-0.11807694
53	0x3c833e9d	0.016021067
54	0xbdab7e9d	-0.08373759
55	0xbc4fed1b	-0.012690808
56	0x3dcb62d3	0.099309586
57	0xbd6d3d32	-0.05791969
58	0xbd83bbc6	-0.06432299
59	0x3dd119aa	0.10209973
60	0x3d7d2ce2	0.06181038
61	0xbd5387b5	-0.051643092
62	0xbd405c31	-0.04696292
63	0xbdeaac31	-0.11458624
64	0x3be46936	0.00697055
65	0xbbb84b8d	-0.0056242407
66	0x3c756154	0.014976818
67	0xbd767018	-0.060165495
68	0xbd993a3f	-0.07481813
69	0x3d56e442	0.052463777
70	0x3ce31d77	0.02772401
71	0xbd155946	-0.03646209
72	0xbdff6057	-0.12469547
73	0x3d0bc8f0	0.034127176
74	0xbddb9cf4	-0.10723296
75	0xc396bb98	-301.46558
76	0xc39d815e	-315.01068
77	0xc3ac71c9	-344.88895
78	0xc3b51a1c	-362.20398
79	0xc3b9dc07	-371.71896
80	0xc3d71ffa	-430.24982
81	0xc3d2f516	-421.91473
82	0xc3e9177a	-466.1834
83	0xc3e93006	-466.37518
84	0xc3eb8448	-471.03345
85	0xc3ccb598	-409.4187
86	0xc3d57f87	-426.9963
87	0xc3e0f0de	-449.88177
88	0xc3e19b80	-451.21484
89	0xc3e36244	-454.7677
90	0xc3d2c5f5	-421.54654
91	0xc3d80af0	-432.08545
92	0xc3e3aa94	-455.33264
93	0xc3f356ef	-486.67917
94	0xc3efb099	-479.37967
95	0xc3bc51a3	-376.6378
96	0xc3bf8cfd	-383.10147
97	0xc3c34d0a	-390.60187
98	0xc3c9f2cc	-403.89685
99	0xc3d76562	-430.79205
100	0xc398b33d	-305.4003
101	0xc39f646c	-318.78455
102	0xc3ae9191	-349.13724
103	0xc3b6c44c	-365.53357
104	0xc3bb7729	-374.93094
105	0xc3d9d5d3	-435.6705
106	0xc3d571ff	-426.8906
107	0xc3eb5685	-470.67593
108	0xc3ebd44d	-471.6586
109	0xc3ee28d4	-476.31897
110	0xc3cf1f44	-414.24426
111	0xc3d7a0b5	-431.25552
112	0xc3e32d2b	-454.35287
113	0xc3e3bfd7	-455.49875
114	0xc3e5e447	-459.78342
115	0xc3d5de7c	-427.73816
116	0xc3db8da8	-439.1067
117	0xc3e73d80	-462.48047
118	0xc3f7615e	-494.76068
119	0xc3f3a5c6	-487.2951
120	0xc3bf6f65	-382.87027
121	0xc3c31c96	-390.22333
122	0xc3c6f1c5	-397.88882
123	0xc3ce01c3	-412.01376
124	0xc3dbc9cf	-439.57663
125	0xc3878cc6	-271.0998
126	0xc38d4335	-282.52505
127	0xc39c07f5	-312.06216
128	0xc3a4399d	-328.4501
129	0xc3a8a9e3	-337.32724
130	0xc3c8d9dc	-401.70203
131	0xc3c42a5b	-392.3309
132	0xc3d99d12	-435.2271
133	0xc3d9e09b	-435.75473
134	0xc3dbb167	-439.38596
135	0xc3befa3f	-381.95505
136	0xc3c70e7e	-398.11322
137	0xc3d223bc	-420.27917
138	0xc3d2c14e	-421.5102
139	0xc3d478c1	-424.9434
140	0xc3c6cec9	-397.6155
141	0xc3cc7e8e	-408.9887
142	0xc3d80ad0	-432.08447
143	0xc3e7fc92	-463.9732
144	0xc3e3bcf3	-455.47617
145	0xc3b0560b	-352.6722
146	0xc3b43769	-360.4329
147	0xc3b70e27	-366.11057
148	0xc3be3b41	-380.46292
149	0xc3cc17e5	-408.18668
150	0xbdf16f55	-0.11788813
151	0x3ce80e99	0.028327273
152	0xbe01cfd1	-0.12676932
153	0xbd5c8e7a	-0.053846814
154	0xbe06bc81	-0.13157846
155	0xbdcefd4d	-0.10106907
156	0x3ba19d9f	0.00493212
157	0xbd8414a0	-0.064492464
158	0x3de31873	0.11088648
159	0xbd978e12	-0.07400145
160	0x3d94aff7	0.07260125
161	0xbd04fe48	-0.032469064
162	0x3b962d6e	0.0045830524
163	0xbc6947b2	-0.014238285
164	0xbd9e0276	-0.07715313
165	0xbc5f979a	-0.0136469845
166	0xbc78c9fb	-0.015184875
167	0x3d73c0fc	0.059510216
168	0xbdd6c6bb	-0.104871236
169	0xbce30aee	-0.027715173
170	0x3dc1804a	0.09448297
171	0x3d85678b	0.0651389
172	0x3cc01889	0.0234492
173	0x3c14998f	0.009069814
174	0xbd8184d4	-0.06324163
175	0xbd63b062	-0.055588134
176	0xbc3585fd	-0.011079309
177	0x3b5bd668	0.0033544544
178	0x3d319ae5	0.04336061
179	0xbde91b44	-0.11382154
180	0x3d881d73	0.06646242
181	0xbdaee79f	-0.08540272
182	0x3d092130	0.033478916
183	0xbc85a0db	-0.016312053
184	0xbd8b4dff	-0.06801986
185	0x3d230575	0.039800126
186	0x3ca762cf	0.020432858
187	0xbcad9ef1	-0.021193953
188	0xbdc063ee	-0.0939406
189	0xbd973992	-0.073840275
190	0xbd148f12	-0.036269255
191	0xbe10fcbd	-0.14158912
192	0xbd4203af	-0.047366794
193	0xbccd7111	-0.025078328
194	0xbd52ecac	-0.05149524
195	0xbd9345d7	-0.07191055
196	0xbdc75874	-0.09733668
197	0xbd363ddc	-0.044492587
198	0x3d7a6dc4	0.061139837
199	0xbd754744	-0.059882417
200	0xbd5fbe14	-0.054624632
201	0x3ab1a2a5	0.00135525
202	0x3b9edf2d	0.004848382
203	0xbda50ebe	-0.080594525
204	0xbd9aba27	-0.07555037
205	0xbd229fd3	-0.0397032
206	0x3d3ce136	0.046113215
207	0x3dab17e1	0.08354164
208	0x3a3b8377	0.00071530737
209	0xbcf45e3b	-0.029830089
210	0xbdacce7f	-0.084378235
211	0xbdd786c9	-0.10523755
212	0xbda1ada5	-0.07894448
213	0xbd1a63bd	-0.037692774
214	0x3d7c77a7	0.061637547
215	0x3dd85a74	0.105641276
216	0xbdc9f621	-0.098613985
217	0x3d8baa14	0.06819549
218	0xbda0fc55	-0.078606285
219	0x3ca4e797	0.020129962
220	0x3e138faf	0.1441028
221	0xbdd88522	-0.10572268
222	0xbd03047c	-0.0319867
223	0xbdd135a6	-0.10215311
224	0xbdc4246f	-0.09577262
225	0xbe7d180d	-0.24716206
226	0xbf01faf1	-0.5077353
227	0xbec0cc9a	-0.376561
228	0xbeae0dc5	-0.3399488
229	0xbf59e87c	-0.8512037
230	0xbc210a5b	-0.009829129
231	0xbd353d70	-0.044248044
232	0xbe161eee	-0.14660236
233	0xbd0df89e	-0.034660928
234	0xbf06e7f6	-0.52697694
235	0xbf114b1a	-0.5675522
236	0xbebb0d2d	-0.3653349
237	0xbf4f2724	-0.809191
238	0xbe667ea9	-0.22509255
239	0xbe58d86a	-0.21176305
240	0xc00268be	-2.037643
241	0xbd35a69e	-0.04434835
242	0xbe8a0514	-0.26957
243	0xbddc6641	-0.10761691
244	0xbe817555	-0.2528483
245	0xbe3f27e5	-0.18667562
246	0xbdfa9f8d	-0.12237463
247	0xbe600ccd	-0.21879883
248	0xbed094eb	-0.40738615
249	0xbe843723	-0.25823316
250	0xbeb72b8c	-0.3577541
251	0xbede30be	-0.43396562
252	0xbed7e801	-0.42169192
253	0xbe90b695	-0.282643
254	0xbf7af59f	-0.9803104
255	0xbe03b95e	-0.1286368

conv1.bias f4 [6]
0	0xbde8e507	-0.113718085
1	0xc03faddf	-2.9949872
2	0x3d90a7b3	0.07063236
3	0x3dbaeda0	0.091273546
4	0xbdd0b146	-0.10190062
5	0x3cb4f58f	0.022089748

conv2.weight f4 [16, 6, 5, 5]
0	0xbce2c4da	-0.027681757
1	0x3d8ddc00	0.06926727
2	0xbd44a4ff	-0.048008915
3	0x3d31492e	0.04328268
4	0xbd1408bb	-0.03614114
5	0xbda57f9f	-0.080809824
6	0x3cf6abe0	0.030111253
7	0x3c9a8b6c	0.01886531
8	0x3d62ecdc	0.055401668
9	0xbd7c17ba	-0.061546065
10	0x3bb54a84	0.0055325646
11	0x3c8fc63e	0.017550584
12	0x3c354ca8	0.01106564
13	0x3b2c9ea0	0.0026339665
14	0xbb9cf580	-0.004790008
15	0x3d9dc37e	0.07703303
16	0x3d95d6e5	0.073163785
17	0xbd92f47e	-0.071755394
18	0x3cc61d78	0.024183974
19	0xbc4739d0	-0.01215978
20	0xbbe7cb70	-0.007073812
21	0x3d8cc6ee	0.0687388
22	0x3b048940	0.002022341
23	0xbd4c4e8f	-0.049879607
24	0xbd1107ac	-0.035407707
25	0xc4b97074	-1483.5142
26	0xc4cc15f7	-1632.6864
27	0xc4d5af6e	-1709.4822
28	0xc4d303af	-1688.1151
29	0xc4c5d748	-1582.7275
30	0xc4b8ba5e	-1477.824
31	0xc4cb67be	-1627.242
32	0xc4d121ff	-1673.0624
33	0xc4cb8f1b	-1628.472
34	0xc4be0aa8	-1520.333
35	0xc4a4ee86	-1319.4539
36	0xc4b2d859	-1430.7609
37	0xc4b9a4a1	-1485.1447
38	0xc4b32d1a	-1433.4094
39	0xc4aaf46f	-1367.6385
40	0xc49f1188	-1272.5479
41	0xc4b0b695	-1413.7057
42	0xc4bbf5a1	-1503.6759
43	0xc4b974cf	-1483.6503
44	0xc4b4020b	-1440.0638
45	0xc4951ce4	-1192.9028
46	0xc4ab3654	-1369.6978
47	0xc4bb06ed	-1496.2164
48	0xc4bcb25d	-1509.5739
49	0xc4b5de45	-1454.9459
50	0x3c96c0a8	0.018402413
51	0x3cc20384	0.023683317
52	0x3cf986e8	0.030459836
53	0xbc0cbcdf	-0.008589952
54	0xbd46abd9	-0.04850373
55	0x3d578040	0.052612543
56	0xbca54590	-0.020174772
57	0x3cd20247	0.025635852
58	0xbd0f7f4a	-0.0350335
59	0x3c95d23b	0.018288722
60	0xbd6d0bb7	-0.0578725
61	0x3d6aba4e	0.05730658
62	0xbb9d6dc9	-0.004804347
63	0xbda120df	-0.07867598
64	0x3c6f9116	0.0146219935
65	0x3db6c8b0	0.08924997
66	0xbd613949	-0.054986272
67	0xbbb04408	-0.0053792037
68	0xbcd93ea8	-0.026519135
69	0xbbb159e1	-0.0054123257
70	0x3df29541	0.11844874
71	0x3ca450d6	0.020058077
72	0xbd10ce9a	-0.03535328
73	0xbc4b6d8f	-0.0124162575
74	0xbd839b34	-0.06426087
75	0xbd8a198f	-0.06743156
76	0xbd5978ef	-0.053093847
77	0x3d193af8	0.037409753
78	0xbda36a5b	-0.0797927
79	0x3d9e93f0	0.077430606
80	0xbce6767a	-0.028132666
81	0x3b8e04a0	0.0043340474
82	0xbd94313c	-0.07235953
83	0x3c7a0738	0.01526051
84	0xbd0f77ed	-0.03502648
85	0x3d9cf624	0.07664135
86	0xbc4034c8	-0.011731334
87	0xbc620640	-0.013795435
88	0x3ce13794	0.027492322
89	0xbbafa8f0	-0.005360715
90	0xbd59b052	-0.053146668
91	0xbd8c4f12	-0.06851019
92	0x3d27726c	0.040880606
93	0x3cc8de24	0.024519987
94	0xbd96084d	-0.07325802
95	0x3c0db9d8	0.008650266
96	0xbd50c808	-0.050972015
97	0x3d0ea6f0	0.034827173
98	0x3cb73ff0	0.022369355
99	0x3cce4df4	0.025183655
100	0x3d8b9960	0.06816363
101	0xbd37225d	-0.044710506
102	0x3cbda145	0.023148188
103	0xbd87d50e	-0.06632434
104	0x3b2b1846	0.0026106997
105	0xbd81450d	-0.063119985
106	0x3d85aa2f	0.065266006
107	0xbd2f1b0e	-0.04275041
108	0x3cb3553f	0.021891234
109	0xbda3580f	-0.0797578
110	0x3d021258	0.031755775
111	0xbdc8671c	-0.097852916
112	0x3d4ec7d7	0.05048355
113	0x3d2052aa	0.039141335
114	0x3d8bc260	0.068241835
115	0x3d67b364	0.056567565
116	0x3c6d302d	0.014476818
117	0x3d24c3b6	0.040225707
118	0xbd3efea2	-0.046629556
119	0x3bf99b6e	0.0076174056
120	0xbcab1593	-0.02088431
121	0x3e02a172	0.12756899
122	0xbd770859	-0.060310695
123	0xbd0c28fc	-0.034218773
124	0x3cedb9ab	0.029019197
125	0x3e9cb81b	0.3060921
126	0x3e8264c9	0.25467518
127	0x3eaf4987	0.34235784
128	0x3e9fdec2	0.31224638
129	0x3e6b5561	0.22981788
130	0x3e62f4fd	0.22163768
131	0x3e5aef0f	0.21380256
132	0x3e570de3	0.21001391
133	0x3e5eb654	0.2174924
134	0x3df3b81f	0.11900353
135	0x3e9d90c5	0.30774513
136	0x3e0849da	0.13309422
137	0x3e148e9f	0.1450753
138	0x3e6d23c3	0.23158173
139	0x3e92c8e4	0.28668892
140	0x3e8f9e98	0.28050685
141	0x3e764c03	0.24052434
142	0x3e934900	0.28766632
143	0x3e6430ae	0.22284195
144	0x3e28d0f7	0.16485964
145	0x3e1b8bc6	0.15190038
146	0x3e74a8e5	0.23892553
147	0x3ec83d81	0.39109424
148	0x3ec5bc66	0.386203
149	0x3ea6044a	0.32425147
150	0x3c514ba0	0.012774378
151	0xbd8dda50	-0.069264054
152	0x3d98d5ca	0.07462652
153	0xbc789040	-0.015171111
154	0x3c58a020	0.0132217705
155	0x3d25c4a2	0.040470727
156	0x3d208ad8	0.03919491
157	0xba84e140	-0.001013793
158	0x3d813c66	0.06310348
159	0xbcef32e0	-0.029199064
160	0xbd7a9d75	-0.06118532
161	0xbd2d7966	-0.042352103
162	0x3d521850	0.051292717
163	0xbb5e1140	-0.0033884794
164	0xbc352400	-0.011055946
165	0x3d62f6b7	0.055411067
166	0x3c52e45b	0.012871827
167	0xbd27200e	-0.040802054
168	0xbd144417	-0.036197748
169	0xbd1af035	-0.037826736
170	0x3d3a0ab4	0.045420364
171	0x3cdbae83	0.026816612
172	0xbc3898cd	-0.011266899
173	0xbd340346	-0.043948434
174	0x3c952be8	0.018209413
175	0xbd9b47cc	-0.075820535
176	0xbcc73a2b	-0.024319729
177	0xbdb944a4	-0.09046295
178	0xbe0a96c5	-0.13534077
179	0xbd2e5f66	-0.042571448
180	0xbdb7ad55	-0.08968607
181	0x3d0a0030	0.033691585
182	0xbda95630	-0.08268392
183	0xbda89110	-0.082307935
184	0xbd895413	-0.06705489
185	0xbd840819	-0.06446857
186	0xbd088a3f	-0.033334967
187	0xbde09d56	-0.109675094
188	0xbe0fa668	-0.14028323
189	0x3d70618d	0.05868678
190	0xbdbfdc1a	-0.09368153
191	0xbd17cb1e	-0.037058942
192	0xbe4c0c34	-0.1992653
193	0x3c7cf1f2	0.015438544
194	0x3dea7390	0.11447823
195	0x3db12634	0.08649865
196	0x3d9be65b	0.07612296
197	0xbe0d643e	-0.1380777
198	0xbdc1de19	-0.0946619
199	0x3da47667	0.08030396
200	0x3d707049	0.058700833
201	0xbd2297e8	-0.03969565
202	0x3d00f2f8	0.031481713
203	0x3d6d1deb	0.05788986
204	0x3cd823a0	0.026384175
205	0x3d323f36	0.043517314
206	0x3c977388	0.018487707
207	0x3d32d5ed	0.043661047
208	0xbd7f80cb	-0.062378686
209	0xbda2cf1c	-0.07949659
210	0xbcfa9f60	-0.030593574
211	0xbc5b6270	-0.013390169
212	0xb96f07bb	-0.00022795696
213	0xbcdf93e3	-0.027292198
214	0xbd324202	-0.04351998
215	0xbb8a3e30	-0.004218839
216	0xbcc0ada6	-0.023520302
217	0xbdf0085e	-0.11720346
218	0xbdab7bb7	-0.08373206
219	0xbddfee58	-0.10934132
220	0xbe09aae2	-0.13444093
221	0xbc329c3a	-0.010901505
222	0xbd2b147c	-0.041767582
223	0xbde4380d	-0.11143503
224	0xbce645a0	-0.028109372
225	0xbd61ae89	-0.05509809
226	0x3d35c630	0.04437846
227	0xba65d380	-0.00087671727
228	0x3cb549b4	0.022129871
229	0xbcce90d4	-0.025215544
230	0x3c90b53c	0.017664544
231	0x3c45e9e0	0.012079686
232	0xbd890fe7	-0.06692486
233	0xbd6daaf8	-0.058024377
234	0x3d297778	0.0413737
235	0xbca9b34c	-0.020715378
236	0xbc9f9810	-0.019481689
237	0xbd975ed9	-0.07391138
238	0xbce796c2	-0.02827013
239	0x3b9e9d60	0.004840538
240	0x3d0b90a8	0.0340735
241	0x3d3839d4	0.044977024
242	0xbcff5d9e	-0.03117257
243	0xbd4292d3	-0.047503304
244	0x3d256fd6	0.04038986
245	0x3cc7f260	0.024407566
246	0x3cd71cc8	0.026258841
247	0x3d9e054a	0.077158526
248	0x3d639690	0.05556351
249	0x3d8c8f52	0.06863274
250	0x3daf2525	0.08552007
251	0xbda4f3e8	-0.08054334
252	0xbd43ae25	-0.0477735
253	0xbd71f636	-0.059072696
254	0xbd19b9a0	-0.03753054
255	0xbccc5987	-0.024945034

conv2.bias f4 [16]
0	0xbfc5d4d0	-1.545557
1	0xc0c4af97	-6.1464343
2	0xc2abeafc	-85.958954
3	0xbf28acaf	-0.65888494
4	0xbd445212	-0.04792983
5	0xbd2c9988	-0.042138606
6	0xbd7ecd0b	-0.062207263
7	0xc1eb1c64	-29.388863
8	0xc0918d04	-4.548464
9	0xbfa9993f	-1.3249892
10	0xbd69f6d2	-0.05712015
11	0xbd92f6ca	-0.071759775
12	0xbe26c407	-0.16285716
13	0xbdaa5a55	-0.08318011
14	0xc00111b1	-2.0167048
15	0xbf365fde	-0.7124003

fc1.weight f4 [120, 400]
0	0x403c6b85	2.9440625
1	0x402eade0	2.7293625
2	0x402640c7	2.5977037
3	0x401599ce	2.3375125
4	0x3fb52d5d	1.4154469
5	0x4045a10f	3.0879552
6	0x40602856	3.502462
7	0x404cbc80	3.1990051
8	0x40206586	2.5061965
9	0x3fdecb27	1.7405747
10	0x3f889f33	1.0673584
11	0x3f8e7f87	1.1132668
12	0x3fabbf03	1.3417667
13	0x3fcdf985	1.6091772
14	0x3feb70d2	1.8393805
15	0x3f05f450	0.52325916
16	0x3f753d93	0.9579708
17	0x3f7d8513	0.9903118
18	0x3fbd76b4	1.480185
19	0x3fe4f49d	1.788715
20	0x3f6ede0d	0.9330757
21	0x3f9aa474	1.2081437
22	0x3fa80467	1.3126343
23	0x3fff1e2c	1.9931083
24	0x4016b015	2.3544972
25	0x3c08b2d9	0.008343422
26	0x3c4fc2f6	0.01268076
27	0xbd71943b	-0.058979254
28	0xbbf1e66e	-0.0073822057
29	0x3c9c9574	0.019114234
30	0xbd710a09	-0.05884746
31	0xbc3293a8	-0.010899462
32	0xbd00078d	-0.0312572
33	0xbd84592d	-0.064623214
34	0xbd99d547	-0.075113826
35	0xbd84fc65	-0.06493453
36	0xbd93af30	-0.07211149
37	0xbc3a2530	-0.011361405
38	0xbb38a37e	-0.002817362
39	0xbcce449c	-0.0251792
40	0xbd56c952	-0.052438088
41	0xbcf953ae	-0.03043541
42	0xb9df9344	-0.00042643596
43	0xbd91e097	-0.07122915
44	0xbbe1062e	-0.0068671918
45	0xbd1d4ad2	-0.038401432
46	0xbc1b99bf	-0.009497105
47	0xbd06207c	-0.032745823
48	0x3c5bcf95	0.013416191
49	0xbcd36a72	-0.025807593
50	0x403a2b18	2.9088802
51	0x40460515	3.0940602
52	0x40433ce2	3.050591
53	0x40358e80	2.8368225
54	0x4021d6cd	2.5287354
55	0x402ac474	2.6682405
56	0x403c0ba5	2.9382107
57	0x403c7b85	2.945039
58	0x40386b4b	2.8815486
59	0x401ff94f	2.4995916
60	0x40186733	2.3812988
61	0x403e6975	2.9751866
62	0x404c10ca	3.1885247
63	0x404c57b0	3.192852
64	0x402455a9	2.5677283
65	0x40004cbd	2.0046837
66	0x40106d4d	2.2566712
67	0x400f9905	2.2437146
68	0x3fef5d04	1.8700261
69	0x3fe0d177	1.7563924
70	0x3f9efc90	1.2420826
71	0x3fb42fb6	1.407706
72	0x3ff0138d	1.8755966
73	0x3ffd47d1	1.9787542
74	0x4003f91a	2.062079
75	0x3f892019	1.071292
76	0x3fb5e318	1.4209929
77	0x3fc2a3f3	1.5206283
78	0x3fd19d86	1.6376197
79	0x3f9a8b93	1.2073845
80	0x3f19e95a	0.6012169
81	0x3f327b71	0.69719607
82	0x3f4161a7	0.7553963
83	0x3f01632e	0.5054196
84	0x3f032249	0.5122419
85	0x3f482fec	0.7819812
86	0x3f6eccb5	0.9328111
87	0x3f8b369b	1.0876039
88	0x3f74fbca	0.956967
89	0x3f1c5522	0.610674
90	0x3f6941ea	0.911162
91	0x3f7d12fe	0.98857105
92	0x3f6bb2d4	0.92069745
93	0x3f344e05	0.7043155
94	0x3ecfa1ed	0.40553227
95	0x3ecf0996	0.40437
96	0x3eed1512	0.46305138
97	0x3f083443	0.53204745
98	0x3ee7d47d	0.45279303
99	0x3efdc24e	0.49562305
100	0xbd036330	-0.032077014
101	0x3ceedd9e	0.02915841
102	0x3ae10700	0.0017168224
103	0xbd22d526	-0.039754055
104	0x3b354750	0.0027660914
105	0xbba69170	-0.0050832555
106	0xbc372108	-0.011177309
107	0x3c6c19e4	0.01441047
108	0xbc00e458	-0.007866941
109	0x3c60e574	0.013726581
110	0x3b122cb0	0.0022304468
111	0x3c19d0ec	0.00938819
112	0x3bc00d68	0.005860973
113	0x3ae52340	0.0017481819
114	0x3d29a3b3	0.04141588
115	0x3c6b44a4	0.014359627
116	0x3d3b858d	0.04578166
117	0xbc6ba854	-0.014383394
118	0xbd3c6ee8	-0.046004206
119	0x3d2b8f11	0.041884486
120	0x3d10fb15	0.0353957
121	0xbcd38787	-0.02582146
122	0xbb2eb2d0	-0.0026656874
123	0xbca508fd	-0.020145888
124	0x3ce224ca	0.027605433
125	0xbd47b792	-0.04875905
126	0x3d391791	0.04518849
127	0xbd25b9da	-0.040460445
128	0xbd298f95	-0.041396696
129	0xbd0b4155	-0.033997852
130	0xbc319674	-0.0108390935
131	0x3ab56000	0.0013837814
132	0xbc15cec0	-0.009143531
133	0x3ceb0d76	0.028692942
134	0x3d1dbd9d	0.038510907
135	0x3d201859	0.03908572
136	0x3ce50ee2	0.027961198
137	0x3d323da5	0.04351582
138	0x3cffcece	0.031226542
139	0x3d388ed7	0.045058098
140	0x3c8cddb2	0.017195556
141	0xbd1e6278	-0.038668126
142	0x3d0a38d1	0.03374559
143	0xbcc54073	-0.024078583
144	0x3c6dfe04	0.014525894
145	0x3d0cb745	0.034354467
146	0x3cfe687a	0.031055678
147	0xbcda9efa	-0.026687134
148	0x3cf3d42e	0.029764261
149	0xbd4b7d47	-0.04968002
150	0x3e8002b0	0.2500205
151	0x3df8cf49	0.121489115
152	0x3e04cb1a	0.12968102
153	0x3e979f26	0.29613608
154	0x3e7ca2fa	0.24671546
155	0x3e325684	0.17415816
156	0x3dd586f6	0.104261324
157	0x3deabf18	0.114622295
158	0xbcd5efe3	-0.026115363
159	0x3cded55e	0.02720135
160	0x3f04905d	0.5178278
161	0x3ed44a3a	0.4146288
162	0x3eef76da	0.46770364
163	0x3e96d30e	0.29457897
164	0x3ce17122	0.027519766
165	0x3f1fb957	0.6239218
166	0x3f2a7d4e	0.6659745
167	0x3ef180b9	0.4716852
168	0x3eb2288c	0.3479656
169	0x3d568502	0.05237294
170	0x3da53c7a	0.080681756
171	0x3e22a389	0.15882696
172	0x3ddd0d59	0.107935615
173	0x3da50d5f	0.08059191
174	0xbcd98280	-0.026551485
175	0xbd198a45	-0.03748538
176	0xbd3e488a	-0.046455897
177	0xbc259fd8	-0.0101089105
178	0xbc07f832	-0.0082989205
179	0xbd795312	-0.060870238
180	0xbdb22165	-0.08697776
181	0xba706956	-0.000917097
182	0xbcc64b6b	-0.024205884
183	0xbbcc9280	-0.00624305
184	0xbd58bde3	-0.052915465
185	0xbcd4af34	-0.02596245
186	0xbc556f18	-0.013026975
187	0xbc8681b8	-0.016419277
188	0xbbd77ee0	-0.006576404
189	0xbda3f70e	-0.08006106
190	0xbdb4cbc6	-0.08827929
191	0x3b78977b	0.0037932086
192	0xbdba3590	-0.090922475
193	0xbb0df2f0	-0.0021659695
194	0xbbfe90c3	-0.007768722
195	0xbd98348c	-0.074318975
196	0x3ac95d60	0.0015362911
197	0xbd0f8425	-0.035038132
198	0xbdbbfe98	-0.09179419
199	0xbd114ecc	-0.035475537
200	0xbd772eab	-0.06034724
201	0x3c18ba3b	0.009321745
202	0xbd51478f	-0.051093634
203	0xbd63fa68	-0.055658728
204	0x3c3e3e60	0.011611551
205	0xbd94676b	-0.07246288
206	0xbd9e2866	-0.07722549
207	0xbc74db71	-0.014944897
208	0x3c3b5350	0.0114334375
209	0xbd2414fd	-0.04005908
210	0xbb0b6410	-0.0021269359
211	0x3b0a72c3	0.0021125532
212	0xbd84c609	-0.06483085
213	0xbcaa7d83	-0.020811802
214	0xbd157659	-0.03648982
215	0xbd995ab7	-0.074880056
216	0xbd66b3e3	-0.056323897
217	0x3c435b28	0.011923589
218	0xbd9ceb41	-0.076620586
219	0xbd7e1b1f	-0.062037583
220	0x3be11c44	0.0068698246
221	0xbd570bf7	-0.052501645
222	0xbdabaf16	-0.08383004
223	0xbc2cfaf2	-0.010557877
224	0xbc86a0c6	-0.016434085
225	0xbd40eaca	-0.047098912
226	0xbd8b8eb7	-0.0681433
227	0xbd6c9559	-0.057759617
228	0xbd477c2d	-0.048702408
229	0xbd933fa5	-0.071898736
230	0xbd840cac	-0.064477295
231	0xbd67fc50	-0.05663711
232	0x3c0853ea	0.008320788
233	0xbb3fe926	-0.0029283254
234	0xbdad6514	-0.08466545
235	0xbcdcec62	-0.026968185
236	0xbd92eaf1	-0.07173718
237	0xbd22261c	-0.039587125
238	0xbd5c2f20	-0.05375588
239	0xbc15a258	-0.009132944
240	0xbd96dcfc	-0.07366368
241	0xbbffdcc1	-0.0078082983
242	0xbc7017fa	-0.014654154
243	0xbd952d2e	-0.07284008
244	0xbd63782d	-0.05553453
245	0x3bf2f85e	0.0074148616
246	0xbb2e71e5	-0.002661818
247	0xbc1fd230	-0.009754702
248	0xbcfc274e	-0.03078046
249	0x3c2517f3	0.010076511
250	0x3d257ffb	0.040405255
251	0xbd4bd612	-0.0497647
252	0x3d009c09	0.031398807
253	0xbc8e8d1c	-0.01740127
254	0xbd237322	-0.03990472
255	0xbd46be5f	-0.048521396

fc1.bias f4 [120]
0	0xbf29f983	-0.6639635
1	0xbd1b37dd	-0.037895072
2	0xc16a2733	-14.63457
3	0xc015497f	-2.3326108
4	0xbc70b774	-0.014692176
5	0xbd2a40f3	-0.041565847
6	0xbc555d73	-0.013022768
7	0xc269cc54	-58.44954
8	0xbd019e67	-0.031645205
9	0xbec90595	-0.3926207
10	0xbc080228	-0.008301295
11	0xbd543037	-0.051803794
12	0xbf8f568f	-1.119829
13	0xbcdf0c3a	-0.02722751
14	0xbdb4f427	-0.08835631
15	0xbe32c008	-0.17456067
16	0xbcc6b38a	-0.024255533
17	0xbf3c90ba	-0.73658335
18	0xbe666091	-0.22497775
19	0xbfc30cad	-1.5238243
20	0xbd2cdced	-0.04220288
21	0xbd310782	-0.04322005
22	0xbbcb33c0	-0.0062012374
23	0xc0709cf7	-3.7595804
24	0xbd479b7d	-0.04873227
25	0xbd25b8fa	-0.04045961
26	0xbd047c70	-0.032345235
27	0xc058da50	-3.3883247
28	0x400c169a	2.1888795
29	0xc059a90f	-3.4009435
30	0xbe2f717f	-0.17133139
31	0xbb949150	-0.004533924
32	0xc13b85e3	-11.720187
33	0xc0ecbe74	-7.3982487
34	0xbe074dc0	-0.13213253
35	0x40298b4d	2.6491272
36	0xbd7a87a7	-0.061164524
37	0xbe01455d	-0.12624116
38	0xbd405910	-0.046959937
39	0x3ff796cc	1.9342895
40	0xbde592a8	-0.11209613
41	0xc20fb816	-35.92977
42	0xc28cde36	-70.434006
43	0xc180d430	-16.103607
44	0xbf6ab99c	-0.9168947
45	0xbd0f51cc	-0.034990117
46	0xbcbe06e9	-0.023196654
47	0xbf293819	-0.66101223
48	0xbda68a89	-0.08131892
49	0x40bbd4a1	5.8697057
50	0xbd92aef6	-0.071622774
51	0xc19d2e93	-19.647741
52	0xc185b25e	-16.712093
53	0xbc85590f	-0.016277818
54	0xc1c2343d	-24.275507
55	0xc23fd518	-47.9581
56	0xbcb324bd	-0.021868104
57	0xbe0ccb03	-0.13749318
58	0xbd638a53	-0.055551838
59	0xbd41027d	-0.047121514
60	0xbe88f0d7	-0.26746246
61	0xbf9a04e2	-1.203274
62	0xc12b40ea	-10.703348
63	0xc0bb0808	-5.8447304
64	0xc104791a	-8.279566
65	0xbf0ba781	-0.54552466
66	0xbc30ee9e	-0.010799078
67	0xbfab5bce	-1.3387392
68	0xc030d7f0	-2.7631798
69	0xc24dbd56	-51.4349
70	0xbd6094e7	-0.054829504
71	0xbd0f4ca8	-0.034985214
72	0xbe4a9ae9	-0.19785656
73	0xc2148a1a	-37.134865
74	0xbbec2f89	-0.007207815
75	0xbc90f7f3	-0.017696356
76	0xbe683c21	-0.22679187
77	0xbeb139d8	-0.34614444
78	0xbddba49f	-0.10724758
79	0xc0458d29	-3.0867407
80	0xc24699de	-49.65026
81	0xbb867e05	-0.004104378
82	0xbe4389f0	-0.19095588
83	0xbd3d3fdc	-0.04620348
84	0x40b32c6b	5.599172
85	0xbda7cb74	-0.081931025
86	0xbd515977	-0.05111071
87	0xbc9754f4	-0.018473126
88	0xbc5d05ec	-0.013490181
89	0xbd880ff6	-0.06643669
90	0xc08c0279	-4.375302
91	0xbc737195	-0.014858623
92	0xbd5c1a30	-0.05373591
93	0xc0f89ba1	-7.7689977
94	0xbec92000	-0.39282227
95	0xbc354648	-0.01106412
96	0xbd848b78	-0.06471914
97	0xbd41a79d	-0.04727899
98	0xc0122f4c	-2.2841368
99	0xc2619d1f	-56.40344
100	0xbd2d190d	-0.04226022
101	0xbd87ade1	-0.06624962
102	0xbfc033c8	-1.5015802
103	0xbda54e7d	-0.08071611
104	0xbcccc065	-0.024994085
105	0xc102a96e	-8.166365
106	0xbd24db2a	-0.040248074
107	0xbf01be3f	-0.5068092
108	0xc20aac19	-34.668064
109	0xc0b7606a	-5.7305193
110	0x433cb5e0	188.71045
111	0xbd2320ac	-0.03982608
112	0xbf8f6ac1	-1.1204454
113	0xbc47c808	-0.012193687
114	0xbdbf423f	-0.09338807
115	0xbdae5a77	-0.085133485
116	0xbda563ac	-0.080756515
117	0xbdbbac13	-0.0916368
118	0xbd3fb42e	-0.046802692
119	0xbe96c3da	-0.29446298

fc2.weight f4 [84, 120]
0	0x3d6e7396	0.0582157
1	0x3d1baf90	0.038009226
2	0xbe1c2334	-0.15247804
3	0x3d029ae1	0.031885985
4	0x3cb44594	0.022005834
5	0xbd805958	-0.06267041
6	0xbe56915a	-0.20953885
7	0xbedb46f2	-0.42827564
8	0x3d36e694	0.04465349
9	0x3d3e5b33	0.046473693
10	0xbd7ca4b6	-0.061680518
11	0xbd20a4d5	-0.039219696
12	0xba66de61	-0.0008806941
13	0x3d9d0802	0.07667543
14	0x3bd771b1	0.0065748324
15	0xbf030115	-0.51173526
16	0xbd86099e	-0.06544803
17	0xbda92706	-0.08259396
18	0x3d0bb437	0.034107413
19	0xbd65a61e	-0.056066625
20	0x3d36d340	0.044635057
21	0x3c41dbf8	0.01183223
22	0x3da129a2	0.07869269
23	0x3db5a294	0.088689
24	0xbd0c1abc	-0.034205183
25	0xbd64d3d7	-0.05586609
26	0x3cf27594	0.029597081
27	0xbf03b3ba	-0.51446116
28	0x3ba46ab6	0.0050176037
29	0x3d907bb6	0.07054846
30	0x3d1047a6	0.03522458
31	0x3d50c6fc	0.050971016
32	0x3cd6b318	0.026208445
33	0xbd8765c7	-0.06611209
34	0xbe40a009	-0.18811049
35	0xbd6a4c78	-0.057201833
36	0xbca565e4	-0.020190187
37	0xbeb6aa5b	-0.35676846
38	0x3d007c6e	0.031368665
39	0x3d198ade	0.03748595
40	0xbd9c53ac	-0.07633147
41	0xbe8a4a27	-0.270097
42	0xbf1b8b29	-0.60759217
43	0xbe8c0f4d	-0.27355424
44	0xbc71f22b	-0.01476721
45	0xbe0ae935	-0.13565524
46	0xbc2dd250	-0.010609224
47	0x3ab55279	0.0013833783
48	0xbe7a4c95	-0.24443276
49	0x3d9a660f	0.075389974
50	0xbd946708	-0.07246214
51	0xbe8b23bb	-0.27175698
52	0xbd037430	-0.032093227
53	0xbd4455c8	-0.04793337
54	0xbe8b3567	-0.2718918
55	0xbef4f5ef	-0.47843882
56	0x3d752198	0.05984649
57	0xbc994728	-0.018710688
58	0xbd9a7036	-0.07540934
59	0x3c879388	0.01654984
60	0xbd8fad56	-0.07015483
61	0x3b8f5220	0.0043738037
62	0xbe21c8ec	-0.15799302
63	0xbcd0a578	-0.025469527
64	0xbd26c7c6	-0.040717863
65	0xbc279e02	-0.010230543
66	0xbe5f00e7	-0.21777688
67	0x3d993ff2	0.074829
68	0xbd703bf4	-0.058650926
69	0xbec4a335	-0.38405767
70	0xbe7877ca	-0.24264446
71	0xbda363ad	-0.07977996
72	0x3d913dc8	0.07091862
73	0xbe5278ef	-0.20553945
74	0xbe0d57ec	-0.13803071
75	0xbeebac78	-0.4603002
76	0xbc8174fe	-0.015802857
77	0x3d453571	0.04814667
78	0xbf0d2d9c	-0.5514772
79	0xbd84b269	-0.064793415
80	0xbddeed11	-0.108850606
81	0xbe313626	-0.17305812
82	0xbcf792fc	-0.030221455
83	0xbea81a04	-0.32832348
84	0x3d87cc7d	0.066308
85	0xbe422bf4	-0.1896208
86	0x3d6b9c7c	0.057522282
87	0xbd9f65ff	-0.07783126
88	0x3c25e5a0	0.010125548
89	0x3db32aa0	0.087483644
90	0x3d39a133	0.045319747
91	0x3ca99b44	0.02070392
92	0xbe960c63	-0.29306325
93	0xbe53ab10	-0.20670724
94	0x3da442e1	0.08020569
95	0x3c15d410	0.009144798
96	0xbcaee5fe	-0.021349903
97	0xbe038c95	-0.12846597
98	0x3db42574	0.08796206
99	0xbe61620f	-0.22010063
100	0x3d96f80a	0.073715284
101	0xbdf1531a	-0.117834285
102	0x3d6573a3	0.056018483
103	0xbe9de149	-0.3083594
104	0xbe51186d	-0.20419474
105	0x3ce14ebf	0.02750337
106	0x3da2818e	0.07934867
107	0xbe505885	-0.20346268
108	0x3c0c1b7d	0.008551476
109	0x3d037204	0.032091156
110	0xbe8a5de6	-0.27024764
111	0xbd472503	-0.04861928
112	0x3d82a531	0.06379164
113	0x3d59bd20	0.05315888
114	0xbeb5c77c	-0.35503757
115	0xbd91e797	-0.071242504
116	0xbea3440d	-0.31887856
117	0xbe4e2818	-0.20132482
118	0xbd3a0cb6	-0.04542228
119	0x3c934a8c	0.017979883
120	0xbda83d9d	-0.08214877
121	0xbd29dbdd	-0.041469444
122	0xbcccfa38	-0.025021657
123	0xbd9d0a8e	-0.07668029
124	0xbcaec740	-0.021335244
125	0xbdb12fba	-0.08651681
126	0xbccad28c	-0.0247586
127	0xbce5c03c	-0.028045766
128	0x3d992210	0.074772
129	0xbc6975a7	-0.014249242
130	0x3d70c7d4	0.05878432
131	0xbd6be0f9	-0.057587598
132	0x3d9e376e	0.07725416
133	0x3d09c54e	0.03363543
134	0x3d96ce06	0.073635146
135	0xbd32b71b	-0.043631654
136	0xbd973060	-0.07382274
137	0xbd136742	-0.035987146
138	0x3d1522db	0.036410194
139	0x3d042f77	0.03227183
140	0x3d1cb444	0.038257852
141	0xbce3ae50	-0.02779308
142	0x3d10b994	0.03533323
143	0x3cb5eb88	0.022207037
144	0xbd2fe275	-0.042940576
145	0x3db9013e	0.0903344
146	0xbb9e6b00	-0.0048345327
147	0xbbd06a1e	-0.0063603064
148	0xbda6f5e9	-0.081523724
149	0xbc3b6ec9	-0.011439987
150	0x3bd0fd30	0.0063778386
151	0xbcf5df10	-0.030013591
152	0x3d2857fa	0.041099526
153	0x3d43979e	0.047752015
154	0xbcd027bd	-0.025409574
155	0x3d820b2b	0.06349786
156	0x3d8743a6	0.066047
157	0x3d373940	0.044732332
158	0xbac9f680	-0.0015408546
159	0x3d7c494b	0.061593335
160	0xbd13941c	-0.03602992
161	0x3d9866d9	0.07441492
162	0xbda6eaf2	-0.08150281
163	0xbdb91c4e	-0.09038602
164	0xbd55235e	-0.052035682
165	0x3d88721c	0.0666239
166	0x3d834d30	0.06411207
167	0x3b7783ac	0.0037767692
168	0xbd3c7e9c	-0.04601918
169	0x3bb84825	0.0056238347
170	0x3cb183ac	0.021669231
171	0xbcf8c4e1	-0.030367317
172	0x3be7fcf7	0.0070797163
173	0xbd950a1a	-0.07277317
174	0x3bcdbd88	0.0062786974
175	0xbcccd881	-0.02500558
176	0x3ca966c0	0.020678878
177	0xbd9df3df	-0.0771253
178	0x3d6e6334	0.058200076
179	0xbcf2e844	-0.029651769
180	0xbd123898	-0.035698503
181	0x3da53778	0.080672204
182	0xbc5f593f	-0.013632118
183	0xbd1bb790	-0.038016856
184	0x399c278f	0.00029784112
185	0x3d97c05c	0.074097365
186	0xbc73d8c0	-0.01488322
187	0x3d9bcd49	0.076075144
188	0xbd6ed9ca	-0.05831317
189	0x3b1ea4e0	0.002420716
190	0xbdb8df80	-0.09027004
191	0xbceb3ef0	-0.028716534
192	0x3da50338	0.080572546
193	0xbd39d560	-0.045369506
194	0xbd51e589	-0.051244292
195	0xbda45b21	-0.08025194
196	0xbd98f2d0	-0.07468188
197	0xbd3d2b7d	-0.04618405
198	0xbd6d9af6	-0.05800911
199	0xbd88f87e	-0.06688021
200	0x3da77ec8	0.081784785
201	0xbd9b0ee0	-0.075711966
202	0x3d40637e	0.046969883
203	0x3d749bb0	0.059718788
204	0x3a7543fe	0.000935614
205	0xbc87734f	-0.016534476
206	0x3db7872a	0.089613274
207	0x3d32f3e8	0.04368964
208	0x3c8452a0	0.01615268
209	0xbc44d510	-0.012013689
210	0x3cb1bf04	0.021697529
211	0x3d4711c8	0.048600942
212	0xbd7d3c0a	-0.061824836
213	0xbd83aeb9	-0.0642981
214	0xbdb43d48	-0.08800751
215	0xbc934b18	-0.017980143
216	0xbd9622da	-0.07330866
217	0x3ba49400	0.005022526
218	0x3bb6049d	0.005554749
219	0x3d2cca7a	0.042185284
220	0xbda2a269	-0.079411335
221	0xbd8b1f18	-0.0679304
222	0xbd9fe6c2	-0.078076854
223	0xbdac0cf0	-0.08400905
224	0x3d89a440	0.06720781
225	0x3d8d6d5c	0.06905624
226	0x3dabe6e4	0.08393648
227	0x3d5b9564	0.053609267
228	0x3c2e7d76	0.010650029
229	0x3d968a6f	0.07350623
230	0xbd4e851f	-0.050419923
231	0x3d8eec70	0.069786906
232	0xbcd8fdfc	-0.026488297
233	0xbb89ef80	-0.004209459
234	0xbce9c458	-0.028536007
235	0x3d66af28	0.056319386
236	0xbd41a5d2	-0.04727728
237	0xbdb63449	-0.08896691
238	0x3ced0098	0.028930947
239	0xbb572288	-0.0032826979
240	0x3daffa6a	0.085926846
241	0xbd164355	-0.036685307
242	0x3d3496b0	0.04408902
243	0xbc9b9d24	-0.018995829
244	0x3d5d7458	0.054066032
245	0x3cbb2474	0.02284453
246	0x3a80d040	0.0009827688
247	0x3c07b258	0.008282267
248	0xbd81d057	-0.06338566
249	0xbc5d2f60	-0.013500065
250	0x3c068248	0.008209772
251	0x3cfa02b8	0.030518875
252	0xbd253873	-0.040337037
253	0xbd455cf4	-0.04818435
254	0x3d3915dc	0.045186862
255	0x3c0e7660	0.008695215

fc2.bias f4 [84]
0	0x3aac0b89	0.0013125996
1	0x3d377f8c	0.044799373
2	0xbd0e036d	-0.034671236
3	0xbdaf7906	-0.08568005
4	0x3e879efd	0.26488486
5	0xbd4e84be	-0.05041956
6	0xc16d1854	-14.8184395
7	0xbfca427d	-1.5801541
8	0xbe5068a7	-0.20352422
9	0xbda685b8	-0.081309736
10	0xbccf3c74	-0.025297381
11	0xc22fcf14	-43.952225
12	0xbdcdb798	-0.10044783
13	0xbd1300d6	-0.03588947
14	0xc249844c	-50.379196
15	0xbd9a8160	-0.075442076
16	0xbccaea5d	-0.024769956
17	0xbd327a29	-0.043573532
18	0x3d053483	0.032520782
19	0xbd6710ce	-0.05641251
20	0xbf52e43f	-0.82379526
21	0xbd476ec6	-0.048689626
22	0xbfd896b1	-1.6920987
23	0x3c6864ea	0.014184216
24	0xbc9b0407	-0.018922819
25	0xbdb7427b	-0.08948227
26	0xbdbfa14d	-0.093569376
27	0xbe044786	-0.12917909
28	0x3e7c90a3	0.2466455
29	0xc0e3341c	-7.100111
30	0x3d8eb6dd	0.06968472
31	0x3d4cb04b	0.049972814
32	0xc10b324f	-8.699782
33	0x3dcd50d5	0.10025183
34	0xbe36e5e6	-0.17861137
35	0xbdcf1a00	-0.10112381
36	0x3e82700c	0.2547611
37	0xbdcf3a4b	-0.101185404
38	0x3d367a2c	0.044550106
39	0xc098a64a	-4.770299
40	0x3df8532e	0.1212524
41	0x3cc6276c	0.02418872
42	0x3dc3b753	0.09556451
43	0xbc33be14	-0.010970611
44	0xbd362523	-0.04446901
45	0xc068621e	-3.6309886
46	0xbe6cd718	-0.23128927
47	0xc01542eb	-2.3322093
48	0xbcab50dc	-0.02091258
49	0xc1ec0ecd	-29.507227
50	0xbdc5308b	-0.096283995
51	0xbd34b398	-0.044116586
52	0x3d01bc70	0.03167385
53	0xbdc223a3	-0.094794534
54	0x3c81a322	0.015824858
55	0xbce0f4a6	-0.027460407
56	0xbdadaae0	-0.084798574
57	0x3b98800b	0.004653936
58	0xbd00d01c	-0.03144847
59	0xbdf17316	-0.11789529
60	0xbd85eb96	-0.06539075
61	0x3c126897	0.008936069
62	0xbd6b32d5	-0.057421524
63	0x3d6cf4c2	0.057850607
64	0xbe2d47ff	-0.16921996
65	0xbd909f9c	-0.07061693
66	0x3c9a59ef	0.018841712
67	0x3d30b8c8	0.04314497
68	0xbc9b55b0	-0.018961757
69	0x3ce39afd	0.027783865
70	0xbc86665f	-0.016406236
71	0xbd5171ef	-0.051134046
72	0x3eb01b83	0.3439599
73	0x3de1f3d9	0.110328384
74	0x3dafcd7c	0.08584115
75	0x3d814801	0.06312562
76	0x3db099e5	0.08623103
77	0x3ca4d04f	0.02011886
78	0xc2195b1d	-38.338978
79	0xbd0425e9	-0.032262716
80	0xbcbf05b7	-0.023318155
81	0x3cc90157	0.024536772
82	0x3b758172	0.0037461189
83	0xc1b48491	-22.56473

fc3.weight f4 [13, 84]
0	0xbcd7841f	-0.026308117
1	0xbd223166	-0.03959789
2	0xbdd5a1b5	-0.10431234
3	0x3d00911e	0.031388395
4	0x3ce88fd0	0.028388888
5	0xbc6ede55	-0.014579375
6	0xbc73b902	-0.014875652
7	0xbcd98498	-0.026552483
8	0x3babe3dd	0.0052456693
9	0xbdd1131d	-0.10208724
10	0xbce8e564	-0.028429694
11	0x3db34a46	0.08754401
12	0x3dd72cc5	0.10506586
13	0xbd3376af	-0.043814357
14	0xbdaead0d	-0.085291006
15	0x3dbded7b	0.092738114
16	0x3d97b0c7	0.074067645
17	0x3d94bfa1	0.07263113
18	0xbd961a68	-0.07329255
19	0x3d8a9906	0.06767468
20	0xbd81cd5b	-0.063379966
21	0xbd6f8bd0	-0.058482945
22	0xbdb0d869	-0.08635027
23	0xbccfb097	-0.02535276
24	0x3da9c2a6	0.08289079
25	0xbc11b66f	-0.008893593
26	0x3daf439f	0.085578196
27	0x3d12c533	0.035832595
28	0xbdd9ada1	-0.1062882
29	0x3d669bd8	0.056300968
30	0xbda80625	-0.08204297
31	0xbda048bb	-0.07826372
32	0xbceb5022	-0.028724734
33	0xbc778c64	-0.015109155
34	0x3cf848ab	0.030308088
35	0xbdcd87d0	-0.1003567
36	0xbdc4df10	-0.09612858
37	0x3dd0fd10	0.10204518
38	0xbbab2e8f	-0.005224056
39	0x3dcb1f89	0.09918124
40	0xbbd13baf	-0.0063852887
41	0x3cf89784	0.030345686
42	0xbdaffbca	-0.08592947
43	0xbdc15c61	-0.09441448
44	0xbc56a2be	-0.013100324
45	0xbd545df1	-0.051847402
46	0xbd8342ff	-0.06409263
47	0x3cce813c	0.025208108
48	0xbc109230	-0.008823916
49	0x3d3b734f	0.045764264
50	0xbd6c2280	-0.05765009
51	0xbcdac84c	-0.026706837
52	0x3c1308f2	0.008974301
53	0xbd0d486c	-0.034492895
54	0x3bc73ca5	0.0060802274
55	0xbd8e61fe	-0.06952284
56	0xbba347ac	-0.004982909
57	0xbd94d24c	-0.072666734
58	0xbd7bdd46	-0.06149032
59	0xbd508145	-0.05090453
60	0x3dd5dc10	0.10442364
61	0xbd8b97b2	-0.06816043
62	0xbd512598	-0.051061243
63	0xbccb456a	-0.024813373
64	0xbddd6dfb	-0.10811993
65	0x3dbcd58c	0.09220418
66	0x3dc24b3a	0.094870046
67	0x3d3fef1b	0.046858888
68	0x3db7179f	0.08940052
69	0x3d8f8912	0.07008566
70	0x3dd003e6	0.101569936
71	0xbcf07256	-0.029351395
72	0xbd83946d	-0.06424794
73	0xbdb9ab0d	-0.090658285
74	0x3d2b08b6	0.041756354
75	0xbd7673fa	-0.060169198
76	0xbdb8306f	-0.08993613
77	0xbc6a30f8	-0.014293902
78	0xbc5b08eb	-0.013368825
79	0xbc9926e2	-0.018695299
80	0xbd016196	-0.031587206
81	0xbdbb4534	-0.09144059
82	0xbcdecb09	-0.027196424
83	0xbdb5245c	-0.088448256
84	0x3e05c545	0.13063534
85	0x3c099460	0.008397192
86	0xbced0a54	-0.028935589
87	0xc290c8c8	-72.39215
88	0x3f9adb8e	1.2098253
89	0xc3b378b9	-358.94315
90	0xc3576c89	-215.42397
91	0xc16095b3	-14.036548
92	0xc3c5804c	-395.00232
93	0xc3c669da	-396.82697
94	0x3d08acdc	0.033367977
95	0xc41fdbba	-639.4332
96	0xbf74cc2b	-0.95624036
97	0x3f58929c	0.8459871
98	0xc437026b	-732.0378
99	0xc390352e	-288.41547
100	0xbfb42643	-1.4074177
101	0x3de51be9	0.11186964
102	0x3fc13070	1.5092907
103	0xbc08e2dd	-0.00835487
104	0xc0977747	-4.73331
105	0xbd69b19c	-0.057054147
106	0xc1853b0d	-16.653833
107	0xbd23b075	-0.039963204
108	0x3daa4241	0.08313418
109	0xc362c3b0	-226.7644
110	0xbf2bf318	-0.67167807
111	0xc407799b	-541.9001
112	0x3fa09e5a	1.2548325
113	0xc3b1718c	-354.8871
114	0x3f1d2a07	0.61392254
115	0xbf0b4f73	-0.54418105
116	0xc2a77300	-83.72461
117	0x3f3d3ca2	0.73920643
118	0xc1db87b5	-27.441263
119	0x3fabafdb	1.3413042
120	0x3f5a773c	0.8533819
121	0x3ec6dfe9	0.38842705
122	0xbd974361	-0.073858984
123	0xc23710fb	-45.766582
124	0x3fc34052	1.5254004
125	0xc26b1c9f	-58.77795
126	0x3e6638b0	0.22482562
127	0xc3ba65b0	-372.79443
128	0x3f62a063	0.8852598
129	0xc20a7a3f	-34.61938
130	0xc08338fc	-4.100706
131	0xc2e4c144	-114.37747
132	0x3d8515f7	0.0649833
133	0xc3d631e7	-428.38986
134	0x3c192267	0.009346581
135	0xbd3566f3	-0.044287633
136	0x3d05df15	0.03268345
137	0x3ed89b91	0.42306188
138	0xbf418ae6	-0.7560257
139	0xc21f5323	-39.83119
140	0x3ebf0e2c	0.373155
141	0x3fd14c14	1.6351342
142	0x3db50bd5	0.088401474
143	0x3f4a18f1	0.7894431
144	0x3f81822d	1.0117851
145	0xc2c71903	-99.54885
146	0x3f746f96	0.95482767
147	0xbe0fb9e7	-0.1403576
148	0x3e9acaf4	0.30232966
149	0xc2180ef9	-38.01462
150	0xc3895aa1	-274.70804
151	0xbee7d793	-0.45281658
152	0x3d880c61	0.06642986
153	0x3db641aa	0.08899243
154	0xc30e9e4e	-142.61838
155	0x3f8aee04	1.0853887
156	0x3fcafc78	1.5858297
157	0x3dd1fd00	0.10253334
158	0x3dc0ec90	0.09420121
159	0x3c4a2b11	0.012339369
160	0x3def8274	0.11694804
161	0x3b5f6488	0.003408702
162	0xc40b08c1	-556.1368
163	0x3ec0cb09	0.37654904
164	0xc3458e3f	-197.55565
165	0xbd66f8c4	-0.056389585
166	0xbb9cf5af	-0.00479003
167	0xc3a4465b	-328.54965
168	0xb9c4bb39	-0.00037523525
169	0xbd8ca720	-0.06867814
170	0xbca5d45c	-0.020242862
171	0x3d7f4fa6	0.062331818
172	0x3d20d6d6	0.039267384
173	0x3d149b96	0.03628119
174	0x3d3092af	0.04310864
175	0x3d833c10	0.064079404
176	0x3c9dba2a	0.019253809
177	0x3d87fb9d	0.06639788
178	0xbd6b16da	-0.05739484
179	0xbc0243a7	-0.0079507
180	0x3d180ac9	0.03711966
181	0xbdcc5a65	-0.09978179
182	0x3d43a013	0.04776008
183	0xbd1dd48c	-0.03853278
184	0xbcf7d43e	-0.030252572
185	0xbdd134ae	-0.10215126
186	0xbd7d601b	-0.06185923
187	0xbdb55d88	-0.0885573
188	0xbbfdc7d0	-0.007744767
189	0x3c724578	0.01478707
190	0xbc4b9f4b	-0.012428115
191	0xbd75552c	-0.05989568
192	0xbd694645	-0.05695178
193	0x3c721408	0.014775284
194	0x3dd12a52	0.1021315
195	0x3db377fb	0.08763119
196	0xbdb0165c	-0.08598015
197	0xbdcba3eb	-0.09943374
198	0x3d8b0134	0.06787339
199	0xbd8d96fd	-0.06913564
200	0x3d58c61b	0.052923303
201	0x3c0e5654	0.008687574
202	0xbdcb018d	-0.09912405
203	0xbdad57b8	-0.08463997
204	0xbdd5bda3	-0.10436561
205	0x3d09b5a5	0.033620495
206	0xbb8b18f7	-0.0042449194
207	0xbad3fa0d	-0.0016172543
208	0x3db123c9	0.086494036
209	0xbde21ad9	-0.11040277
210	0x3d17d6bd	0.037070025
211	0x3c70de71	0.014701472
212	0xbd2e4f3c	-0.042556033
213	0x3dcb7b9d	0.09935687
214	0x3d8cec18	0.06880969
215	0x3b563540	0.0032685548
216	0x3dd0038f	0.10156929
217	0xbd4b767b	-0.04967354
218	0xbcec2340	-0.028825402
219	0xbdd71c9e	-0.10503505
220	0x3daf4c37	0.08559459
221	0x3c0a8e1a	0.008456731
222	0x3d93bd27	0.07213812
223	0x3b809c10	0.003924854
224	0x3da55aa8	0.08073932
225	0xbbc30013	-0.0059509366
226	0xbdb8965b	-0.09013053
227	0x3caed79c	0.021343045
228	0xbcddc081	-0.027069332
229	0x3ca54174	0.020172812
230	0x3d8d0942	0.068865314
231	0xbcf6f464	-0.030145831
232	0xbc3b4458	-0.011429869
233	0xbd451684	-0.048117176
234	0x3dba44ff	0.09095191
235	0xbd8825b5	-0.06647817
236	0xbd8df970	-0.06932342
237	0xbd2dcd07	-0.042431857
238	0x3d2bf3d6	0.041980587
239	0xbdaa0180	-0.08301067
240	0xbd17915c	-0.03700386
241	0x3dc64662	0.09681393
242	0xbb1c336f	-0.0023834368
243	0xbd9bd730	-0.07609403
244	0x3d189824	0.037254468
245	0xbc4c5688	-0.0124718025
246	0x3c77f825	0.015134846
247	0xbccd9235	-0.025094131
248	0x3d1f0054	0.038818672
249	0xbd56f8d4	-0.052483395
250	0x3c26dfe0	0.010185212
251	0xbbcee30b	-0.0063136867
252	0xbe434f12	-0.19073132
253	0xbd952ac6	-0.07283549
254	0x3dca0dd5	0.098659195
255	0x4290c632	72.3871

fc3.bias f4 [13]
0	0xc02eaac2	-2.7291722
1	0x4088686d	4.2627473
2	0x3fdfaee3	1.7475246
3	0x3ff05940	1.8777237
4	0x3fd00b56	1.625346
5	0xbf5e98b2	-0.86951745
6	0xc02edd45	-2.7322552
7	0x3e6c8d61	0.23100807
8	0x3e7ccf64	0.24688488
9	0xbe464daa	-0.19365564
10	0xbe1ecec0	-0.15508556
11	0xbf635ff8	-0.8881831
12	0xc02f1dfa	-2.7362046
